_________________________________________________________________
Layer (type)                 Output Shape              Param #   
=================================================================
conv2d_1 (Conv2D)            (None, 80, 75, 32)        416       
_________________________________________________________________
max_pooling2d_1 (MaxPooling2 (None, 40, 37, 32)        0         
_________________________________________________________________
conv2d_2 (Conv2D)            (None, 20, 18, 64)        8256      
_________________________________________________________________
max_pooling2d_2 (MaxPooling2 (None, 10, 9, 64)         0         
_________________________________________________________________
conv2d_3 (Conv2D)            (None, 5, 4, 128)         32896     
_________________________________________________________________
max_pooling2d_3 (MaxPooling2 (None, 2, 2, 128)         0         
_________________________________________________________________
flatten_1 (Flatten)          (None, 512)               0         
_________________________________________________________________
dense_1 (Dense)              (None, 512)               262656    
_________________________________________________________________
dense_2 (Dense)              (None, 256)               131328    
_________________________________________________________________
dropout_1 (Dropout)          (None, 256)               0         
_________________________________________________________________
dense_3 (Dense)              (None, 8)                 2056      
=================================================================
Total params: 437,608
Trainable params: 437,608
Non-trainable params: 0
_________________________________________________________________
None
